…
        [0, 0, 0,  ..., 0, 0, 0]], dtype=torch.int32)
mask9 (1024x1024)
tensor([[0, 0, 0,  ..., 0, 0, 0],
        [0, 0, 0,  ..., 0, 0, 0],
        [0, 0, 0,  ..., 0, 0, 0],
        ...,
        [0, 0, 0,  ..., 0, 0, 0],
        [0, 0, 0,  ..., 0, 0, 0],
        [0, 0, 0,  ..., 0, 0, 0]], dtype=torch.int32)
mask10 (10x1024)
tensor([[1, 1, 0,  ..., 0, 1, 1],
        [1, 1, 1,  ..., 0, 1, 0],
        [0, 0, 0,  ..., 0, 1, 0],
        ...,
        [1, 0, 0,  ..., 0, 1, 1],
        [1, 0, 0,  ..., 0, 0, 1],
        [1, 0, 0,  ..., 0, 0, 0]], dtype=torch.int32)

=== PyTorch model ===
MLP1a(
  (layers): ModuleList(
    (0): Linear(in_features=3072, out_features=1024, bias=True)
    (1): Linear(in_features=1024, out_features=1024, bias=True)
    (2): Linear(in_features=1024, out_features=1024, bias=True)
    (3): Linear(in_features=1024, out_features=1024, bias=True)
    (4): Linear(in_features=1024, out_features=1024, bias=True)
    (5): Linear(in_features=1024, out_features=1024, bias=True)
    (6): Linear(in_features=1024, out_features=1024, bias=True)
    (7): Linear(in_features=1024, out_features=1024, bias=True)
    (8): Linear(in_features=1024, out_features=1024, bias=True)
    (9): Linear(in_features=1024, out_features=10, bias=True)
  )
  (loss): CrossEntropyLoss()
)
CrossEntropyLoss()
<torch.optim.lr_scheduler.MultiStepLR object at 0x7f29204a4e80>

=== Training PyTorch model ===
epoch   0  lr: 0.10000000  loss: 2.30270171  train accuracy: 0.10000000  test accuracy: 0.10000000  time: 0.00000000s
epoch   1  lr: 0.10000000  loss: 2.30505776  train accuracy: 0.10000000  test accuracy: 0.10000000  time: 39.74589474s
…
